------------------- train.py --npz_file=npz_128_20 --input_dim=128 --batch=4 --epochs=50 ---------------

By training with these parameters two models, one with perceptual loss and one with mse:
	- the perceptual loss model is twice as fast for training.

WITHOUT MOD:

Output streaming troncato alle ultime 5000 righe.
sep_leakyRelu_1 (LeakyReLU)     (None, 64, 64, 128)  0           sep_in_1[0][0]                   
__________________________________________________________________________________________________
block_1/branch1/rf (ReflectionP (None, 66, 66, 128)  0           sep_leakyRelu_1[0][0]            
__________________________________________________________________________________________________
block_1/branch1/sepconv (Separa (None, 64, 64, 128)  17664       block_1/branch1/rf[0][0]         
__________________________________________________________________________________________________
block_1/branch1/BNorm (BatchNor (None, 64, 64, 128)  512         block_1/branch1/sepconv[0][0]    
__________________________________________________________________________________________________
block_1/branch1/LeakyRelu (Leak (None, 64, 64, 128)  0           block_1/branch1/BNorm[0][0]      
__________________________________________________________________________________________________
block_1/branch2/rf (ReflectionP (None, 68, 68, 128)  0           block_1/branch1/LeakyRelu[0][0]  
__________________________________________________________________________________________________
block_1/branch1_1/rf (Reflectio (None, 66, 66, 128)  0           block_1/branch1/LeakyRelu[0][0]  
__________________________________________________________________________________________________
block_1/branch2/sepconv (Separa (None, 64, 64, 128)  17664       block_1/branch2/rf[0][0]         
__________________________________________________________________________________________________
block_1/branch1_1/sepconv (Sepa (None, 64, 64, 128)  17664       block_1/branch1_1/rf[0][0]       
__________________________________________________________________________________________________
block_1/branch2/BNorm (BatchNor (None, 64, 64, 128)  512         block_1/branch2/sepconv[0][0]    
__________________________________________________________________________________________________
block_1/branch1_1/BNorm (BatchN (None, 64, 64, 128)  512         block_1/branch1_1/sepconv[0][0]  
__________________________________________________________________________________________________
block_1/branch2/LeakyRelu (Leak (None, 64, 64, 128)  0           block_1/branch2/BNorm[0][0]      
__________________________________________________________________________________________________
block_1/branch1_1/LeakyRelu (Le (None, 64, 64, 128)  0           block_1/branch1_1/BNorm[0][0]    
__________________________________________________________________________________________________
block_1/branch1/add_branch1_2 ( (None, 64, 64, 128)  0           block_1/branch2/LeakyRelu[0][0]  
                                                                 block_1/branch1_1/LeakyRelu[0][0]
__________________________________________________________________________________________________
block_1/branch1/add_skip (Add)  (None, 64, 64, 128)  0           sep_leakyRelu_1[0][0]            
                                                                 block_1/branch1/add_branch1_2[0][
__________________________________________________________________________________________________
block_2/branch1/rf (ReflectionP (None, 66, 66, 128)  0           block_1/branch1/add_skip[0][0]   
__________________________________________________________________________________________________
block_2/branch1/sepconv (Separa (None, 64, 64, 128)  17664       block_2/branch1/rf[0][0]         
__________________________________________________________________________________________________
block_2/branch1/BNorm (BatchNor (None, 64, 64, 128)  512         block_2/branch1/sepconv[0][0]    
__________________________________________________________________________________________________
block_2/branch1/LeakyRelu (Leak (None, 64, 64, 128)  0           block_2/branch1/BNorm[0][0]      
__________________________________________________________________________________________________
leakyRelu_1 (LeakyReLU)         (None, 128, 128, 64) 0           in_1[0][0]                       
__________________________________________________________________________________________________
block_2/branch2/rf (ReflectionP (None, 68, 68, 128)  0           block_2/branch1/LeakyRelu[0][0]  
__________________________________________________________________________________________________
block_2/branch1_1/rf (Reflectio (None, 66, 66, 128)  0           block_2/branch1/LeakyRelu[0][0]  
__________________________________________________________________________________________________
Attention_1/conv1 (Conv2D)      (None, 128, 128, 64) 36928       leakyRelu_1[0][0]                
__________________________________________________________________________________________________
block_2/branch2/sepconv (Separa (None, 64, 64, 128)  17664       block_2/branch2/rf[0][0]         
__________________________________________________________________________________________________
block_2/branch1_1/sepconv (Sepa (None, 64, 64, 128)  17664       block_2/branch1_1/rf[0][0]       
__________________________________________________________________________________________________
Attention_1/BNorm1 (BatchNormal (None, 128, 128, 64) 256         Attention_1/conv1[0][0]          
__________________________________________________________________________________________________
block_2/branch2/BNorm (BatchNor (None, 64, 64, 128)  512         block_2/branch2/sepconv[0][0]    
__________________________________________________________________________________________________
block_2/branch1_1/BNorm (BatchN (None, 64, 64, 128)  512         block_2/branch1_1/sepconv[0][0]  
__________________________________________________________________________________________________
Attention_1/leakyReLU1 (LeakyRe (None, 128, 128, 64) 0           Attention_1/BNorm1[0][0]         
__________________________________________________________________________________________________
block_2/branch2/LeakyRelu (Leak (None, 64, 64, 128)  0           block_2/branch2/BNorm[0][0]      
__________________________________________________________________________________________________
block_2/branch1_1/LeakyRelu (Le (None, 64, 64, 128)  0           block_2/branch1_1/BNorm[0][0]    
__________________________________________________________________________________________________
Attention_1/add1 (Add)          (None, 128, 128, 64) 0           leakyRelu_1[0][0]                
                                                                 Attention_1/leakyReLU1[0][0]     
__________________________________________________________________________________________________
block_2/branch1/add_branch1_2 ( (None, 64, 64, 128)  0           block_2/branch2/LeakyRelu[0][0]  
                                                                 block_2/branch1_1/LeakyRelu[0][0]
__________________________________________________________________________________________________
Attention_1/conv2 (Conv2D)      (None, 128, 128, 64) 36928       Attention_1/add1[0][0]           
__________________________________________________________________________________________________
block_2/branch1/add_skip (Add)  (None, 64, 64, 128)  0           block_1/branch1/add_skip[0][0]   
                                                                 block_2/branch1/add_branch1_2[0][
__________________________________________________________________________________________________
Attention_1/BNorm2 (BatchNormal (None, 128, 128, 64) 256         Attention_1/conv2[0][0]          
__________________________________________________________________________________________________
up_convtranpose_1 (Conv2DTransp (None, 128, 128, 64) 73792       block_2/branch1/add_skip[0][0]   
__________________________________________________________________________________________________
Attention_1/leakyReLU2 (LeakyRe (None, 128, 128, 64) 0           Attention_1/BNorm2[0][0]         
__________________________________________________________________________________________________
up_bn_1 (BatchNormalization)    (None, 128, 128, 64) 256         up_convtranpose_1[0][0]          
__________________________________________________________________________________________________
Attention_1/add2 (Add)          (None, 128, 128, 64) 0           leakyRelu_1[0][0]                
                                                                 Attention_1/leakyReLU2[0][0]     
__________________________________________________________________________________________________
up_leakyRelu_1 (LeakyReLU)      (None, 128, 128, 64) 0           up_bn_1[0][0]                    
__________________________________________________________________________________________________
skip_1 (Add)                    (None, 128, 128, 64) 0           Attention_1/add2[0][0]           
                                                                 up_leakyRelu_1[0][0]             
__________________________________________________________________________________________________
final/rf (ReflectionPadding2D)  (None, 134, 134, 64) 0           skip_1[0][0]                     
__________________________________________________________________________________________________
final/conv (Conv2D)             (None, 128, 128, 1)  3137        final/rf[0][0]                   
__________________________________________________________________________________________________
tanh (Activation)               (None, 128, 128, 1)  0           final/conv[0][0]                 
==================================================================================================
Total params: 316,929
Trainable params: 314,497
Non-trainable params: 2,432
__________________________________________________________________________________________________
Model: "model_1"
__________________________________________________________________________________________________
Layer (type)                    Output Shape         Param #     Connected to                     
==================================================================================================
input_2 (InputLayer)            (None, 128, 128, 3)  0                                            
__________________________________________________________________________________________________
input_4 (InputLayer)            (None, 64, 64, 64)   0                                            
__________________________________________________________________________________________________
input_3 (InputLayer)            (None, 64, 64, 3)    0                                            
__________________________________________________________________________________________________
G_Fine (Model)                  (None, 128, 128, 1)  316929      input_2[0][0]                    
                                                                 input_4[0][0]                    
__________________________________________________________________________________________________
G_Coarse (Model)                [(None, 64, 64, 1),  2989825     input_3[0][0]                    
__________________________________________________________________________________________________
…
Clipping input data to the valid range for imshow with RGB data ([0..1] for floats or [0..255] for integers).
Clipping input data to the valid range for imshow with RGB data ([0..1] for floats or [0..255] for integers).
Clipping input data to the valid range for imshow with RGB data ([0..1] for floats or [0..255] for integers).
>Saved: AAGAN/global_plot_004250.png and AAGAN/global_gmodel_004250.h5
>Saved: AAGAN/local_plot_004250.png and AAGAN/local_gmodel_004250.h5
Saved AAGAN/plot_line_plot_loss.png
Time Taken
1.4285836268795862

Output streaming troncato alle ultime 5000 righe.
block_2/branch1/LeakyRelu (Leak (None, 16, 16, 256)  0           block_2/branch1/BNorm[0][0]      
__________________________________________________________________________________________________
block_2/branch2/rf (ReflectionP (None, 20, 20, 256)  0           block_2/branch1/LeakyRelu[0][0]  
__________________________________________________________________________________________________
block_2/branch1_1/rf (Reflectio (None, 18, 18, 256)  0           block_2/branch1/LeakyRelu[0][0]  
__________________________________________________________________________________________________
block_2/branch2/sepconv (Separa (None, 16, 16, 256)  68096       block_2/branch2/rf[0][0]         
__________________________________________________________________________________________________
block_2/branch1_1/sepconv (Sepa (None, 16, 16, 256)  68096       block_2/branch1_1/rf[0][0]       
__________________________________________________________________________________________________
block_2/branch2/BNorm (BatchNor (None, 16, 16, 256)  1024        block_2/branch2/sepconv[0][0]    
__________________________________________________________________________________________________
block_2/branch1_1/BNorm (BatchN (None, 16, 16, 256)  1024        block_2/branch1_1/sepconv[0][0]  
__________________________________________________________________________________________________
block_2/branch2/LeakyRelu (Leak (None, 16, 16, 256)  0           block_2/branch2/BNorm[0][0]      
__________________________________________________________________________________________________
block_2/branch1_1/LeakyRelu (Le (None, 16, 16, 256)  0           block_2/branch1_1/BNorm[0][0]    
__________________________________________________________________________________________________
block_2/branch1/add_branch1_2 ( (None, 16, 16, 256)  0           block_2/branch2/LeakyRelu[0][0]  
                                                                 block_2/branch1_1/LeakyRelu[0][0]
__________________________________________________________________________________________________
block_2/branch1/add_skip (Add)  (None, 16, 16, 256)  0           block_1/branch1/add_skip[0][0]   
                                                                 block_2/branch1/add_branch1_2[0][
__________________________________________________________________________________________________
block_3/branch1/rf (ReflectionP (None, 18, 18, 256)  0           block_2/branch1/add_skip[0][0]   
__________________________________________________________________________________________________
block_3/branch1/sepconv (Separa (None, 16, 16, 256)  68096       block_3/branch1/rf[0][0]         
__________________________________________________________________________________________________
block_3/branch1/BNorm (BatchNor (None, 16, 16, 256)  1024        block_3/branch1/sepconv[0][0]    
__________________________________________________________________________________________________
block_3/branch1/LeakyRelu (Leak (None, 16, 16, 256)  0           block_3/branch1/BNorm[0][0]      
__________________________________________________________________________________________________
block_3/branch2/rf (ReflectionP (None, 20, 20, 256)  0           block_3/branch1/LeakyRelu[0][0]  
__________________________________________________________________________________________________
block_3/branch1_1/rf (Reflectio (None, 18, 18, 256)  0           block_3/branch1/LeakyRelu[0][0]  
__________________________________________________________________________________________________
block_3/branch2/sepconv (Separa (None, 16, 16, 256)  68096       block_3/branch2/rf[0][0]         
__________________________________________________________________________________________________
block_3/branch1_1/sepconv (Sepa (None, 16, 16, 256)  68096       block_3/branch1_1/rf[0][0]       
__________________________________________________________________________________________________
block_3/branch2/BNorm (BatchNor (None, 16, 16, 256)  1024        block_3/branch2/sepconv[0][0]    
__________________________________________________________________________________________________
block_3/branch1_1/BNorm (BatchN (None, 16, 16, 256)  1024        block_3/branch1_1/sepconv[0][0]  
__________________________________________________________________________________________________
block_3/branch2/LeakyRelu (Leak (None, 16, 16, 256)  0           block_3/branch2/BNorm[0][0]      
__________________________________________________________________________________________________
block_3/branch1_1/LeakyRelu (Le (None, 16, 16, 256)  0           block_3/branch1_1/BNorm[0][0]    
__________________________________________________________________________________________________
block_3/branch1/add_branch1_2 ( (None, 16, 16, 256)  0           block_3/branch2/LeakyRelu[0][0]  
                                                                 block_3/branch1_1/LeakyRelu[0][0]
__________________________________________________________________________________________________
block_3/branch1/add_skip (Add)  (None, 16, 16, 256)  0           block_2/branch1/add_skip[0][0]   
                                                                 block_3/branch1/add_branch1_2[0][
__________________________________________________________________________________________________
block_4/branch1/rf (ReflectionP (None, 18, 18, 256)  0           block_3/branch1/add_skip[0][0]   
__________________________________________________________________________________________________
block_4/branch1/sepconv (Separa (None, 16, 16, 256)  68096       block_4/branch1/rf[0][0]         
__________________________________________________________________________________________________
block_4/branch1/BNorm (BatchNor (None, 16, 16, 256)  1024        block_4/branch1/sepconv[0][0]    
__________________________________________________________________________________________________
block_4/branch1/LeakyRelu (Leak (None, 16, 16, 256)  0           block_4/branch1/BNorm[0][0]      
__________________________________________________________________________________________________
block_4/branch2/rf (ReflectionP (None, 20, 20, 256)  0           block_4/branch1/LeakyRelu[0][0]  
__________________________________________________________________________________________________
block_4/branch1_1/rf (Reflectio (None, 18, 18, 256)  0           block_4/branch1/LeakyRelu[0][0]  
__________________________________________________________________________________________________
block_4/branch2/sepconv (Separa (None, 16, 16, 256)  68096       block_4/branch2/rf[0][0]         
__________________________________________________________________________________________________
block_4/branch1_1/sepconv (Sepa (None, 16, 16, 256)  68096       block_4/branch1_1/rf[0][0]       
__________________________________________________________________________________________________
block_4/branch2/BNorm (BatchNor (None, 16, 16, 256)  1024        block_4/branch2/sepconv[0][0]    
__________________________________________________________________________________________________
block_4/branch1_1/BNorm (BatchN (None, 16, 16, 256)  1024        block_4/branch1_1/sepconv[0][0]  
__________________________________________________________________________________________________
block_4/branch2/LeakyRelu (Leak (None, 16, 16, 256)  0           block_4/branch2/BNorm[0][0]      
__________________________________________________________________________________________________
block_4/branch1_1/LeakyRelu (Le (None, 16, 16, 256)  0           block_4/branch1_1/BNorm[0][0]    
__________________________________________________________________________________________________
block_4/branch1/add_branch1_2 ( (None, 16, 16, 256)  0           block_4/branch2/LeakyRelu[0][0]  
                                                                 block_4/branch1_1/LeakyRelu[0][0]
__________________________________________________________________________________________________
block_4/branch1/add_skip (Add)  (None, 16, 16, 256)  0           block_3/branch1/add_skip[0][0]   
                                                                 block_4/branch1/add_branch1_2[0][
__________________________________________________________________________________________________
block_5/branch1/rf (ReflectionP (None, 18, 18, 256)  0           block_4/branch1/add_skip[0][0]   
__________________________________________________________________________________________________
block_5/branch1/sepconv (Separa (None, 16, 16, 256)  68096       block_5/branch1/rf[0][0]         
__________________________________________________________________________________________________
block_5/branch1/BNorm (BatchNor (None, 16, 16, 256)  1024        block_5/branch1/sepconv[0][0]    
__________________________________________________________________________________________________
block_5/branch1/LeakyRelu (Leak (None, 16, 16, 256)  0           block_5/branch1/BNorm[0][0]      
__________________________________________________________________________________________________
block_5/branch2/rf (ReflectionP (None, 20, 20, 256)  0           block_5/branch1/LeakyRelu[0][0]  
__________________________________________________________________________________________________
block_5/branch1_1/rf (Reflectio (None, 18, 18, 256)  0           block_5/branch1/LeakyRelu[0][0]  
__________________________________________________________________________________________________
block_5/branch2/sepconv (Separa (None, 16, 16, 256)  68096       block_5/branch2/rf[0][0]         
__________________________________________________________________________________________________
block_5/branch1_1/sepconv (Sepa (None, 16, 16, 256)  68096       block_5/branch1_1/rf[0][0]       
__________________________________________________________________________________________________
block_5/branch2/BNorm (BatchNor (None, 16, 16, 256)  1024        block_5/branch2/sepconv[0][0]    
__________________________________________________________________________________________________
block_5/branch1_1/BNorm (BatchN (None, 16, 16, 256)  1024        block_5/branch1_1/sepconv[0][0]  
__________________________________________________________________________________________________
block_5/branch2/LeakyRelu (Leak (None, 16, 16, 256)  0           block_5/branch2/BNorm[0][0]      
__________________________________________________________________________________________________
block_5/branch1_1/LeakyRelu (Le (None, 16, 16, 256)  0           block_5/branch1_1/BNorm[0][0]    
__________________________________________________________________________________________________
block_5/branch1/add_branch1_2 ( (None, 16, 16, 256)  0           block_5/branch2/LeakyRelu[0][0]  
                                                                 block_5/branch1_1/LeakyRelu[0][0]
__________________________________________________________________________________________________
block_5/branch1/add_skip (Add)  (None, 16, 16, 256)  0           block_4/branch1/add_skip[0][0]   
                                                                 block_5/branch1/add_branch1_2[0][
__________________________________________________________________________________________________
block_6/branch1/rf (ReflectionP (None, 18, 18, 256)  0           block_5/branch1/add_skip[0][0]   
__________________________________________________________________________________________________
block_6/branch1/sepconv (Separa (None, 16, 16, 256)  68096       block_6/branch1/rf[0][0]         
__________________________________________________________________________________________________
block_6/branch1/BNorm (BatchNor (None, 16, 16, 256)  1024        block_6/branch1/sepconv[0][0]    
__________________________________________________________________________________________________
block_6/branch1/LeakyRelu (Leak (None, 16, 16, 256)  0           block_6/branch1/BNorm[0][0]      
__________________________________________________________________________________________________
block_6/branch2/rf (ReflectionP (None, 20, 20, 256)  0           block_6/branch1/LeakyRelu[0][0]  
__________________________________________________________________________________________________
block_6/branch1_1/rf (Reflectio (None, 18, 18, 256)  0           block_6/branch1/LeakyRelu[0][0]  
__________________________________________________________________________________________________
block_6/branch2/sepconv (Separa (None, 16, 16, 256)  68096       block_6/branch2/rf[0][0]         
__________________________________________________________________________________________________
block_6/branch1_1/sepconv (Sepa (None, 16, 16, 256)  68096       block_6/branch1_1/rf[0][0]       
__________________________________________________________________________________________________
block_6/branch2/BNorm (BatchNor (None, 16, 16, 256)  1024        block_6/branch2/sepconv[0][0]    
__________________________________________________________________________________________________
block_6/branch1_1/BNorm (BatchN (None, 16, 16, 256)  1024        block_6/branch1_1/sepconv[0][0]  
__________________________________________________________________________________________________
block_6/branch2/LeakyRelu (Leak (None, 16, 16, 256)  0           block_6/branch2/BNorm[0][0]      
__________________________________________________________________________________________________
block_6/branch1_1/LeakyRelu (Le (None, 16, 16, 256)  0           block_6/branch1_1/BNorm[0][0]    
__________________________________________________________________________________________________
block_6/branch1/add_branch1_2 ( (None, 16, 16, 256)  0           block_6/branch2/LeakyRelu[0][0]  
                                                                 block_6/branch1_1/LeakyRelu[0][0]
__________________________________________________________________________________________________
block_6/branch1/add_skip (Add)  (None, 16, 16, 256)  0           block_5/branch1/add_skip[0][0]   
                                                                 block_6/branch1/add_branch1_2[0][
__________________________________________________________________________________________________
block_7/branch1/rf (ReflectionP (None, 18, 18, 256)  0           block_6/branch1/add_skip[0][0]   
__________________________________________________________________________________________________
block_7/branch1/sepconv (Separa (None, 16, 16, 256)  68096       block_7/branch1/rf[0][0]         
__________________________________________________________________________________________________
block_7/branch1/BNorm (BatchNor (None, 16, 16, 256)  1024        block_7/branch1/sepconv[0][0]    
__________________________________________________________________________________________________
block_7/branch1/LeakyRelu (Leak (None, 16, 16, 256)  0           block_7/branch1/BNorm[0][0]      
__________________________________________________________________________________________________
block_7/branch2/rf (ReflectionP (None, 20, 20, 256)  0           block_7/branch1/LeakyRelu[0][0]  
__________________________________________________________________________________________________
block_7/branch1_1/rf (Reflectio (None, 18, 18, 256)  0           block_7/branch1/LeakyRelu[0][0]  
__________________________________________________________________________________________________
block_7/branch2/sepconv (Separa (None, 16, 16, 256)  68096       block_7/branch2/rf[0][0]         
__________________________________________________________________________________________________
block_7/branch1_1/sepconv (Sepa (None, 16, 16, 256)  68096       block_7/branch1_1/rf[0][0]       
__________________________________________________________________________________________________
block_7/branch2/BNorm (BatchNor (None, 16, 16, 256)  1024        block_7/branch2/sepconv[0][0]    
__________________________________________________________________________________________________
block_7/branch1_1/BNorm (BatchN (None, 16, 16, 256)  1024        block_7/branch1_1/sepconv[0][0]  
__________________________________________________________________________________________________
block_7/branch2/LeakyRelu (Leak (None, 16, 16, 256)  0           block_7/branch2/BNorm[0][0]      
__________________________________________________________________________________________________
block_7/branch1_1/LeakyRelu (Le (None, 16, 16, 256)  0           block_7/branch1_1/BNorm[0][0]    
__________________________________________________________________________________________________
block_7/branch1/add_branch1_2 ( (None, 16, 16, 256)  0           block_7/branch2/LeakyRelu[0][0]  
                                                                 block_7/branch1_1/LeakyRelu[0][0]
__________________________________________________________________________________________________
block_7/branch1/add_skip (Add)  (None, 16, 16, 256)  0           block_6/branch1/add_skip[0][0]   
                                                                 block_7/branch1/add_branch1_2[0][
__________________________________________________________________________________________________
block_8/branch1/rf (ReflectionP (None, 18, 18, 256)  0           block_7/branch1/add_skip[0][0]   
__________________________________________________________________________________________________
block_8/branch1/sepconv (Separa (None, 16, 16, 256)  68096       block_8/branch1/rf[0][0]         
__________________________________________________________________________________________________
block_8/branch1/BNorm (BatchNor (None, 16, 16, 256)  1024        block_8/branch1/sepconv[0][0]    
__________________________________________________________________________________________________
block_8/branch1/LeakyRelu (Leak (None, 16, 16, 256)  0           block_8/branch1/BNorm[0][0]      
__________________________________________________________________________________________________
block_8/branch2/rf (ReflectionP (None, 20, 20, 256)  0           block_8/branch1/LeakyRelu[0][0]  
__________________________________________________________________________________________________
block_8/branch1_1/rf (Reflectio (None, 18, 18, 256)  0           block_8/branch1/LeakyRelu[0][0]  
__________________________________________________________________________________________________
block_8/branch2/sepconv (Separa (None, 16, 16, 256)  68096       block_8/branch2/rf[0][0]         
__________________________________________________________________________________________________
block_8/branch1_1/sepconv (Sepa (None, 16, 16, 256)  68096       block_8/branch1_1/rf[0][0]       
__________________________________________________________________________________________________
block_8/branch2/BNorm (BatchNor (None, 16, 16, 256)  1024        block_8/branch2/sepconv[0][0]    
__________________________________________________________________________________________________
block_8/branch1_1/BNorm (BatchN (None, 16, 16, 256)  1024        block_8/branch1_1/sepconv[0][0]  
__________________________________________________________________________________________________
block_8/branch2/LeakyRelu (Leak (None, 16, 16, 256)  0           block_8/branch2/BNorm[0][0]      
__________________________________________________________________________________________________
block_8/branch1_1/LeakyRelu (Le (None, 16, 16, 256)  0           block_8/branch1_1/BNorm[0][0]    
__________________________________________________________________________________________________
block_8/branch1/add_branch1_2 ( (None, 16, 16, 256)  0           block_8/branch2/LeakyRelu[0][0]  
                                                                 block_8/branch1_1/LeakyRelu[0][0]
__________________________________________________________________________________________________
block_8/branch1/add_skip (Add)  (None, 16, 16, 256)  0           block_7/branch1/add_skip[0][0]   
                                                                 block_8/branch1/add_branch1_2[0][
__________________________________________________________________________________________________
block_9/branch1/rf (ReflectionP (None, 18, 18, 256)  0           block_8/branch1/add_skip[0][0]   
__________________________________________________________________________________________________
block_9/branch1/sepconv (Separa (None, 16, 16, 256)  68096       block_9/branch1/rf[0][0]         
__________________________________________________________________________________________________
block_9/branch1/BNorm (BatchNor (None, 16, 16, 256)  1024        block_9/branch1/sepconv[0][0]    
__________________________________________________________________________________________________
block_9/branch1/LeakyRelu (Leak (None, 16, 16, 256)  0           block_9/branch1/BNorm[0][0]      
__________________________________________________________________________________________________
block_9/branch2/rf (ReflectionP (None, 20, 20, 256)  0           block_9/branch1/LeakyRelu[0][0]  
__________________________________________________________________________________________________
block_9/branch1_1/rf (Reflectio (None, 18, 18, 256)  0           block_9/branch1/LeakyRelu[0][0]  
__________________________________________________________________________________________________
Attention_1/conv1 (Conv2D)      (None, 32, 32, 128)  147584      down_leakyRelu_1[0][0]           
__________________________________________________________________________________________________
block_9/branch2/sepconv (Separa (None, 16, 16, 256)  68096       block_9/branch2/rf[0][0]         
__________________________________________________________________________________________________
block_9/branch1_1/sepconv (Sepa (None, 16, 16, 256)  68096       block_9/branch1_1/rf[0][0]       
__________________________________________________________________________________________________
Attention_1/BNorm1 (BatchNormal (None, 32, 32, 128)  512         Attention_1/conv1[0][0]          
__________________________________________________________________________________________________
block_9/branch2/BNorm (BatchNor (None, 16, 16, 256)  1024        block_9/branch2/sepconv[0][0]    
__________________________________________________________________________________________________
block_9/branch1_1/BNorm (BatchN (None, 16, 16, 256)  1024        block_9/branch1_1/sepconv[0][0]  
__________________________________________________________________________________________________
Attention_1/leakyReLU1 (LeakyRe (None, 32, 32, 128)  0           Attention_1/BNorm1[0][0]         
__________________________________________________________________________________________________
block_9/branch2/LeakyRelu (Leak (None, 16, 16, 256)  0           block_9/branch2/BNorm[0][0]      
__________________________________________________________________________________________________
block_9/branch1_1/LeakyRelu (Le (None, 16, 16, 256)  0           block_9/branch1_1/BNorm[0][0]    
__________________________________________________________________________________________________
leakyRelu_1 (LeakyReLU)         (None, 64, 64, 64)   0           bn_1[0][0]                       
__________________________________________________________________________________________________
Attention_1/add1 (Add)          (None, 32, 32, 128)  0           down_leakyRelu_1[0][0]           
                                                                 Attention_1/leakyReLU1[0][0]     
__________________________________________________________________________________________________
block_9/branch1/add_branch1_2 ( (None, 16, 16, 256)  0           block_9/branch2/LeakyRelu[0][0]  
                                                                 block_9/branch1_1/LeakyRelu[0][0]
__________________________________________________________________________________________________
Attention_2/conv1 (Conv2D)      (None, 64, 64, 64)   36928       leakyRelu_1[0][0]                
__________________________________________________________________________________________________
Attention_1/conv2 (Conv2D)      (None, 32, 32, 128)  147584      Attention_1/add1[0][0]           
__________________________________________________________________________________________________
block_9/branch1/add_skip (Add)  (None, 16, 16, 256)  0           block_8/branch1/add_skip[0][0]   
                                                                 block_9/branch1/add_branch1_2[0][
__________________________________________________________________________________________________
Attention_2/BNorm1 (BatchNormal (None, 64, 64, 64)   256         Attention_2/conv1[0][0]          
__________________________________________________________________________________________________
Attention_1/BNorm2 (BatchNormal (None, 32, 32, 128)  512         Attention_1/conv2[0][0]          
__________________________________________________________________________________________________
up_convtranpose_1 (Conv2DTransp (None, 32, 32, 128)  295040      block_9/branch1/add_skip[0][0]   
__________________________________________________________________________________________________
Attention_2/leakyReLU1 (LeakyRe (None, 64, 64, 64)   0           Attention_2/BNorm1[0][0]         
__________________________________________________________________________________________________
Attention_1/leakyReLU2 (LeakyRe (None, 32, 32, 128)  0           Attention_1/BNorm2[0][0]         
__________________________________________________________________________________________________
up_bn_1 (BatchNormalization)    (None, 32, 32, 128)  512         up_convtranpose_1[0][0]          
__________________________________________________________________________________________________
Attention_2/add1 (Add)          (None, 64, 64, 64)   0           leakyRelu_1[0][0]                
                                                                 Attention_2/leakyReLU1[0][0]     
__________________________________________________________________________________________________
Attention_1/add2 (Add)          (None, 32, 32, 128)  0           down_leakyRelu_1[0][0]           
                                                                 Attention_1/leakyReLU2[0][0]     
__________________________________________________________________________________________________
up_leakyRelu_1 (LeakyReLU)      (None, 32, 32, 128)  0           up_bn_1[0][0]                    
__________________________________________________________________________________________________
Attention_2/conv2 (Conv2D)      (None, 64, 64, 64)   36928       Attention_2/add1[0][0]           
__________________________________________________________________________________________________
skip_1 (Add)                    (None, 32, 32, 128)  0           Attention_1/add2[0][0]           
                                                                 up_leakyRelu_1[0][0]             
__________________________________________________________________________________________________
Attention_2/BNorm2 (BatchNormal (None, 64, 64, 64)   256         Attention_2/conv2[0][0]          
__________________________________________________________________________________________________
up_convtranpose_2 (Conv2DTransp (None, 64, 64, 64)   73792       skip_1[0][0]                     
__________________________________________________________________________________________________
Attention_2/leakyReLU2 (LeakyRe (None, 64, 64, 64)   0           Attention_2/BNorm2[0][0]         
__________________________________________________________________________________________________
up_bn_2 (BatchNormalization)    (None, 64, 64, 64)   256         up_convtranpose_2[0][0]          
__________________________________________________________________________________________________
Attention_2/add2 (Add)          (None, 64, 64, 64)   0           leakyRelu_1[0][0]                
                                                                 Attention_2/leakyReLU2[0][0]     
__________________________________________________________________________________________________
up_leakyRelu_2 (LeakyReLU)      (None, 64, 64, 64)   0           up_bn_2[0][0]                    
__________________________________________________________________________________________________
skip_2 (Add)                    (None, 64, 64, 64)   0           Attention_2/add2[0][0]           
                                                                 up_leakyRelu_2[0][0]             
__________________________________________________________________________________________________
final/rf (ReflectionPadding2D)  (None, 70, 70, 64)   0           skip_2[0][0]                     
__________________________________________________________________________________________________
final/conv (Conv2D)             (None, 64, 64, 1)    3137        final/rf[0][0]                   
__________________________________________________________________________________________________
tanh (Activation)               (None, 64, 64, 1)    0           final/conv[0][0]                 
==================================================================================================
Total params: 2,989,825
Trainable params: 2,973,953
Non-trainable params: 15,872
__________________________________________________________________________________________________
X_coarse (None, 64, 64, 64)
Model: "G_Fine"
__________________________________________________________________________________________________
Layer (type)                    Output Shape         Param #     Connected to                     
==================================================================================================
input (InputLayer)              (None, 128, 128, 3)  0                                            
__________________________________________________________________________________________________
rf_1 (ReflectionPadding2D)      (None, 134, 134, 3)  0           input[0][0]                      
__________________________________________________________________________________________________
conv_1 (Conv2D)                 (None, 128, 128, 64) 9472        rf_1[0][0]                       
__________________________________________________________________________________________________
in_1 (BatchNormalization)       (None, 128, 128, 64) 256         conv_1[0][0]                     
__________________________________________________________________________________________________
down_conv_1 (Conv2D)            (None, 64, 64, 64)   36928       in_1[0][0]                       
__________________________________________________________________________________________________
down_bn_1 (BatchNormalization)  (None, 64, 64, 64)   256         down_conv_1[0][0]                
__________________________________________________________________________________________________
x_input (InputLayer)            (None, 64, 64, 64)   0                                            
__________________________________________________________________________________________________
down_leakyRelu_1 (LeakyReLU)    (None, 64, 64, 64)   0           down_bn_1[0][0]                  
__________________________________________________________________________________________________
add_X_coarse (Add)              (None, 64, 64, 64)   0           x_input[0][0]                    
                                                                 down_leakyRelu_1[0][0]           
__________________________________________________________________________________________________
sepconv_1 (SeparableConv2D)     (None, 64, 64, 128)  8896        add_X_coarse[0][0]               
__________________________________________________________________________________________________
sep_in_1 (BatchNormalization)   (None, 64, 64, 128)  512         sepconv_1[0][0]                  
__________________________________________________________________________________________________
sep_leakyRelu_1 (LeakyReLU)     (None, 64, 64, 128)  0           sep_in_1[0][0]                   
__________________________________________________________________________________________________
block_1/branch1/rf (ReflectionP (None, 66, 66, 128)  0           sep_leakyRelu_1[0][0]            
__________________________________________________________________________________________________
block_1/branch1/sepconv (Separa (None, 64, 64, 128)  17664       block_1/branch1/rf[0][0]         
__________________________________________________________________________________________________
block_1/branch1/BNorm (BatchNor (None, 64, 64, 128)  512         block_1/branch1/sepconv[0][0]    
__________________________________________________________________________________________________
block_1/branch1/LeakyRelu (Leak (None, 64, 64, 128)  0           block_1/branch1/BNorm[0][0]      
__________________________________________________________________________________________________
block_1/branch2/rf (ReflectionP (None, 68, 68, 128)  0           block_1/branch1/LeakyRelu[0][0]  
__________________________________________________________________________________________________
block_1/branch1_1/rf (Reflectio (None, 66, 66, 128)  0           block_1/branch1/LeakyRelu[0][0]  
__________________________________________________________________________________________________
block_1/branch2/sepconv (Separa (None, 64, 64, 128)  17664       block_1/branch2/rf[0][0]         
__________________________________________________________________________________________________
block_1/branch1_1/sepconv (Sepa (None, 64, 64, 128)  17664       block_1/branch1_1/rf[0][0]       
__________________________________________________________________________________________________
block_1/branch2/BNorm (BatchNor (None, 64, 64, 128)  512         block_1/branch2/sepconv[0][0]    
__________________________________________________________________________________________________
block_1/branch1_1/BNorm (BatchN (None, 64, 64, 128)  512         block_1/branch1_1/sepconv[0][0]  
__________________________________________________________________________________________________
block_1/branch2/LeakyRelu (Leak (None, 64, 64, 128)  0           block_1/branch2/BNorm[0][0]      
__________________________________________________________________________________________________
block_1/branch1_1/LeakyRelu (Le (None, 64, 64, 128)  0           block_1/branch1_1/BNorm[0][0]    
__________________________________________________________________________________________________
block_1/branch1/add_branch1_2 ( (None, 64, 64, 128)  0           block_1/branch2/LeakyRelu[0][0]  
                                                                 block_1/branch1_1/LeakyRelu[0][0]
__________________________________________________________________________________________________
block_1/branch1/add_skip (Add)  (None, 64, 64, 128)  0           sep_leakyRelu_1[0][0]            
                                                                 block_1/branch1/add_branch1_2[0][
__________________________________________________________________________________________________
block_2/branch1/rf (ReflectionP (None, 66, 66, 128)  0           block_1/branch1/add_skip[0][0]   
__________________________________________________________________________________________________
block_2/branch1/sepconv (Separa (None, 64, 64, 128)  17664       block_2/branch1/rf[0][0]         
__________________________________________________________________________________________________
block_2/branch1/BNorm (BatchNor (None, 64, 64, 128)  512         block_2/branch1/sepconv[0][0]    
__________________________________________________________________________________________________
block_2/branch1/LeakyRelu (Leak (None, 64, 64, 128)  0           block_2/branch1/BNorm[0][0]      
__________________________________________________________________________________________________
leakyRelu_1 (LeakyReLU)         (None, 128, 128, 64) 0           in_1[0][0]                       
__________________________________________________________________________________________________
block_2/branch2/rf (ReflectionP (None, 68, 68, 128)  0           block_2/branch1/LeakyRelu[0][0]  
__________________________________________________________________________________________________
block_2/branch1_1/rf (Reflectio (None, 66, 66, 128)  0           block_2/branch1/LeakyRelu[0][0]  
__________________________________________________________________________________________________
Attention_1/conv1 (Conv2D)      (None, 128, 128, 64) 36928       leakyRelu_1[0][0]                
__________________________________________________________________________________________________
block_2/branch2/sepconv (Separa (None, 64, 64, 128)  17664       block_2/branch2/rf[0][0]         
__________________________________________________________________________________________________
block_2/branch1_1/sepconv (Sepa (None, 64, 64, 128)  17664       block_2/branch1_1/rf[0][0]       
__________________________________________________________________________________________________
Attention_1/BNorm1 (BatchNormal (None, 128, 128, 64) 256         Attention_1/conv1[0][0]          
__________________________________________________________________________________________________
block_2/branch2/BNorm (BatchNor (None, 64, 64, 128)  512         block_2/branch2/sepconv[0][0]    
__________________________________________________________________________________________________
block_2/branch1_1/BNorm (BatchN (None, 64, 64, 128)  512         block_2/branch1_1/sepconv[0][0]  
__________________________________________________________________________________________________
Attention_1/leakyReLU1 (LeakyRe (None, 128, 128, 64) 0           Attention_1/BNorm1[0][0]         
__________________________________________________________________________________________________
block_2/branch2/LeakyRelu (Leak (None, 64, 64, 128)  0           block_2/branch2/BNorm[0][0]      
__________________________________________________________________________________________________
block_2/branch1_1/LeakyRelu (Le (None, 64, 64, 128)  0           block_2/branch1_1/BNorm[0][0]    
__________________________________________________________________________________________________
Attention_1/add1 (Add)          (None, 128, 128, 64) 0           leakyRelu_1[0][0]                
                                                                 Attention_1/leakyReLU1[0][0]     
__________________________________________________________________________________________________
block_2/branch1/add_branch1_2 ( (None, 64, 64, 128)  0           block_2/branch2/LeakyRelu[0][0]  
                                                                 block_2/branch1_1/LeakyRelu[0][0]
__________________________________________________________________________________________________
Attention_1/conv2 (Conv2D)      (None, 128, 128, 64) 36928       Attention_1/add1[0][0]           
__________________________________________________________________________________________________
block_2/branch1/add_skip (Add)  (None, 64, 64, 128)  0           block_1/branch1/add_skip[0][0]   
                                                                 block_2/branch1/add_branch1_2[0][
__________________________________________________________________________________________________
Attention_1/BNorm2 (BatchNormal (None, 128, 128, 64) 256         Attention_1/conv2[0][0]          
__________________________________________________________________________________________________
up_convtranpose_1 (Conv2DTransp (None, 128, 128, 64) 73792       block_2/branch1/add_skip[0][0]   
__________________________________________________________________________________________________
Attention_1/leakyReLU2 (LeakyRe (None, 128, 128, 64) 0           Attention_1/BNorm2[0][0]         
__________________________________________________________________________________________________
up_bn_1 (BatchNormalization)    (None, 128, 128, 64) 256         up_convtranpose_1[0][0]          
__________________________________________________________________________________________________
Attention_1/add2 (Add)          (None, 128, 128, 64) 0           leakyRelu_1[0][0]                
                                                                 Attention_1/leakyReLU2[0][0]     
__________________________________________________________________________________________________
up_leakyRelu_1 (LeakyReLU)      (None, 128, 128, 64) 0           up_bn_1[0][0]                    
__________________________________________________________________________________________________
skip_1 (Add)                    (None, 128, 128, 64) 0           Attention_1/add2[0][0]           
                                                                 up_leakyRelu_1[0][0]             
__________________________________________________________________________________________________
final/rf (ReflectionPadding2D)  (None, 134, 134, 64) 0           skip_1[0][0]                     
__________________________________________________________________________________________________
final/conv (Conv2D)             (None, 128, 128, 1)  3137        final/rf[0][0]                   
__________________________________________________________________________________________________
tanh (Activation)               (None, 128, 128, 1)  0           final/conv[0][0]                 
==================================================================================================
Total params: 316,929
Trainable params: 314,497
Non-trainable params: 2,432
__________________________________________________________________________________________________
(None, None, None, None)
Downloading data from https://github.com/fchollet/deep-learning-models/releases/download/v0.1/vgg19_weights_tf_dim_ordering_tf_kernels_notop.h5
…
